app/src/main/assets/mi_modelo.tflite (tflite, 46884 bytes, 8 tensors)

sequential_4/dense_19/BiasAdd/ReadVariableOp f4 [3]
-0.17120199 -0.053041086 0.1834831
00000000: 934f 2fbe 9c41 59bd fee2 3b3e

sequential_4/dense_18/BiasAdd/ReadVariableOp f4 [32]
-0.08121347 -0.019293748 0.22412176 -0.05362025 0.043607514 0.25472012 0.1695423 0.18752608
0.22124262 -0.054475438 0.16979714 0.26441747 0.021348234 -0.0035315892 0.1462325 0.16348083
0.22254473 0.17185119 -0.017075988 -0.112752184 0.26248875 0.2749523 0.16117974 0.2446434
0.0059967586 -0.050199527 -0.06419727 0.21315512 0.012601766 0.20643094 0.06156598 0.21097703
00000000: 3f53 a6bd ec0d 9ebc 2d80 653e e8a0 5bbd
00000010: cb9d 323d ad6a 823e 7f9c 2d3e d606 403e
00000020: 6d8d 623e a321 5fbd 4ddf 2d3e ba61 873e
00000030: 7ee2 ae3c 3c72 67bb f9bd 153e 8567 273e
00000040: c4e2 633e c2f9 2f3e f1e2 8bbc 9eea e6bd
00000050: ed64 863e 8cc6 8c3e 4d0c 253e cd83 7a3e
00000060: 7580 c43b 059e 4dbd dc79 83bd 5645 5a3e
00000070: a377 4e3c a262 533e 9c2c 7c3d 5d0a 583e

sequential_4/dense_17/BiasAdd/ReadVariableOp f4 [64]
0.011851942 0.09131192 -0.13236618 0.10846087 0.018161047 -0.014557916 0.18221699 0.016060866
0.2196832 0.08489698 0.094440036 0.10215865 0.12771748 0.020533893 0.07564154 -0.17295223
-0.1068122 -0.15637511 -0.036048897 -0.15840384 0.076420374 0.044292126 0.20677786 0.024336368
-0.079795934 0.009739667 0.13014281 0.040014535 -0.14321917 -0.07685571 0.071327515 -0.0967742
-0.04450607 0.16058998 0.16542535 0.09340733 0.16367294 -0.117484786 -0.0033332459 -0.08831436
0.054529466 0.10796404 0.033049054 -0.0048698355 -0.115439735 0.035970386 0.010522826 0.15617347
-0.13739733 0.010034059 0.19419794 0.028444631 0.09185716 -0.013927662 0.014805532 -0.0904066
0.18614908 0.20216165 0.028766578 0.08539815 0.15689044 0.008444872 -0.10325779 0.041436173
00000000: a62e 423c be01 bb3d 008b 07be bc20 de3d
00000010: 7ac6 943c 5384 6ebc 1797 3a3e 1492 833c
00000020: a2f4 603e 78de ad3d c769 c13d 8e38 d13d
00000030: 5fc8 023e b236 a83c f4e9 9a3d 641a 31be
00000040: 5bc0 dabd cc20 20be 02a8 13bd 9e34 22be
00000050: 4982 9c3d a96b 353d 93bd 533e 105d c73c
00000060: 0d6c a3bd 2093 1f3c 2844 053e 48e6 233d
00000070: 0ca8 12be 8766 9dbd 2914 923d 8d31 c6bd
00000080: ff4b 36bd b371 243e 4365 293e 584c bf3d
00000090: e199 273e dd9b f0bd 9672 5abb 29de b4bd
000000a0: 4a5a 5f3d 401c dd3d 725e 073d 2493 9fbb
000000b0: ab6b ecbd af55 133d ee67 2c3c f0eb 1f3e
000000c0: e3b1 0cbe e565 243c d3db 463e b704 e93c
000000d0: 9b1f bc3d d930 64bc e792 723c 1827 b9bd
000000e0: dd9d 3e3e 7703 4f3e e3a7 eb3c 3ae5 ae3d
000000f0: e3a7 203e 5c5c 0a3c d278 d3bd fab8 293d

sequential_4/dense_16/BiasAdd/ReadVariableOp f4 [128]
-0.24089588 -0.26198852 0.013283269 -0.07811505 -0.2169332 -0.078159526 -0.10212497 -0.08242814
-0.039155975 0.018241806 -0.12287883 0.043474246 0.043779273 0.040612258 -0.08112459 -0.07681479
-0.055324595 0.010627683 -0.25292847 0.030975671 -0.009826725 -0.04540059 0.028829454 -0.052602682
-0.1735954 0.008898575 0.042875823 0.029502157 -0.08272196 -0.07582457 -0.059141375 -0.07690708
0.15572849 0.047662865 0.028295299 -0.0047955 -0.06675498 0.118531786 0.005861523 -0.28417116
0.019759703 -0.12424671 0.26287213 -0.08785767 -0.26790434 0.034135394 0.04532674 0.12103557
0.0062750834 -0.26145154 -0.24827127 -0.06794748 -0.105230756 0.033326607 -0.2536765 -0.030277628
-0.02695653 0.023595208 -0.13837326 -0.1389013 0.008579421 0.03345337 -0.01830381 0.010286502
-0.18474136 0.026156137 -0.2310148 0.033291396 -0.12877111 0.040850844 0.28869256 0.16441683
-0.15635175 0.21062273 -0.11067421 0.0077812285 -0.17400432 0.008092016 0.018197618 -0.024561448
-0.025651805 -0.21536154 0.02513425 0.007299736 -0.2070659 0.02790118 -0.21118765 -0.117475934
0.2312538 -0.01978328 -0.22223227 -0.12715177 0.030756276 -0.14456789 0.040063187 -0.098838985
-0.08373468 -0.056119137 0.017498666 -0.047816064 -0.13960351 0.032084785 0.050984036 -0.2310012
-0.0058209784 -0.039060246 -0.047230225 0.016146384 0.21736373 -0.10951082 0.29554015 -0.2804788
0.010704355 -0.05142514 -0.14489333 -0.1212416 -0.15274127 0.047911827 -0.27534586 0.06322971
-0.15698932 0.017220672 0.005639425 0.0337498 -0.065869205 -0.074457616 0.0015623284 -0.011250668
00000000: 69ad 76be 5c23 86be 11a2 593c c9fa 9fbd
00000010: bd23 5ebe 1a12 a0bd e526 d1bd 16d0 a8bd
00000020: 0462 20bd d76f 953c e5a7 fbbd 0d12 323d
00000030: e551 333d 0a59 263d a624 a6bd 1351 9dbd
00000040: 0b9c 62bd bc1f 2e3c d77f 81be b1c0 fd3c
00000050: 4600 21bc f8f5 39bd bf2b ec3c e975 57bd
00000060: fec2 31be 54cb 113c 8f9e 2f3d 82ae f13c
00000070: 226a a9bd ea49 9bbd 3a3e 72bd 7681 9dbd
00000080: 4a77 1f3e 233a 433d 8bcb e73c 9223 9dbb
00000090: d6b6 88bd cbc0 f23d 0512 c03b e27e 91be
000000a0: 1adf a13c 0f75 febd 2d97 863e b9ee b3bd
000000b0: c22a 89be 8ed1 0b3d 88a8 393d 7fe1 f73d
000000c0: 379f cd3b fadc 85be d33a 7ebe 0c28 8bbd
000000d0: 3983 d7bd 7b81 083d e3e1 81be ca08 f8bc
000000e0: f1d3 dcbc bd4a c13c b8b1 0dbe 243c 0ebe
000000f0: b390 0c3c 6706 093d dff1 95bc b788 283c
00000100: d72c 3dbe 6545 d63c 258f 6cbe 8f5c 083d
00000110: 93dc 03be 3753 273d 83cf 933e e35c 283e
00000120: ac1a 20be 7cad 573e 29a9 e2bd adf9 fe3b
00000130: 302e 32be 6094 043c 2c13 953c 1735 c9bc
00000140: bc23 d2bc bc87 5cbe 58e6 cd3c a032 ef3b
00000150: 1509 54be 0491 e43c 9341 58be 3997 f0bd
00000160: cccd 6c3e 8c10 a2bc db90 63be 1334 02be
00000170: 96f4 fb3c 9b09 14be 4c19 243d 186c cabd
00000180: 177d abbd 2edd 65bd 5d59 8f3c c7da 43bd
00000190: 39f4 0ebe 566b 033d a3d4 503d 948b 6cbe
000001a0: e8bd bebb a3fd 1fbd 7b74 41bd 6c45 843c
000001b0: 9994 5e3e 3547 e0bd 0a51 973e eb9a 8fbe
000001c0: 5261 2f3c 2ba3 52bd eb5e 14be 844d f8bd
000001d0: 3568 1cbe 313f 443d 22fa 8cbe 947e 813d
000001e0: cfc1 20be 5e12 8d3c edca b83b 3b3d 0a3d
000001f0: 6fe6 86bd 3c7d 98bd 0bc7 cc3a b954 38bc

sequential_4/dense_16/MatMul f4 [128, 4]
0.071676426 -0.30129611 0.013331911 -0.0005120669 0.0926987 -0.3126736 0.013525505 -0.002122658
0.066797204 0.26099586 0.0057348446 0.028591068 0.095068775 -0.15726216 0.022875682 0.02926557
0.09343346 -0.26480857 0.0025479174 -0.050497666 -0.048468243 0.105664276 -0.09672245 -0.03867494
0.11794877 0.06921695 0.008313732 -0.020787077 0.0065467246 0.11209527 0.029732326 0.052611187
-0.20943512 0.11457048 -0.0655231 0.0004111793 0.2636873 -0.3147872 0.017473947 -0.00554835
-0.22189294 0.082858324 -0.015015184 0.009424803 -0.06079625 0.18668705 -0.09102792 -0.021715537
-0.33780992 0.38208807 0.0018068266 0.0038174507 -0.1973035 0.2434337 0.0022496385 0.0031111198
0.043694004 0.12008699 0.021198055 -0.03545378 -0.07575521 0.06884611 0.0026054773 0.005652494
-0.16722353 0.29880887 -0.09127868 0.10938306 0.18668245 -0.19502027 -0.006820069 -0.0026397388
0.08925635 -0.31752333 0.0026215608 -0.008176623 -0.3618884 0.40428376 -0.0025582865 0.0077604204
0.052340407 0.29234445 -0.09871867 0.04363332 -7.423089e-05 -0.12331552 -0.037500143 -0.04127982
-0.29296 0.31567964 -0.004232849 0.0056548645 -0.2018324 0.13122575 -0.025942529 0.03388409
-0.0034653437 0.08466743 0.12611482 0.10859321 0.22132668 -0.2311146 0.005839004 0.006364901
-0.20613803 0.2910719 -0.003767258 -0.009207654 -0.25770938 0.3023011 -0.013206511 0.0025382685
-0.25648263 0.08182122 0.042938527 0.058663104 0.19159445 -0.28923503 0.012292394 0.026902586
0.020512186 -0.09382118 0.0013761836 -0.09114987 -0.2114335 0.04774849 -0.033929385 0.04741982
-0.0011140272 0.17303336 0.00523224 0.0011608987 -0.1900037 0.25239173 0.028396185 -0.0037230698
-0.39409283 0.4319313 -0.0019977868 0.010097844 0.042760305 0.035207797 -0.00076075346 0.0059150686
0.10012294 0.2475589 0.05162262 -0.008470708 -0.04582794 0.18126017 -0.03157052 -0.06525071
0.22733161 -0.2656964 0.0054216143 -0.0032087807 0.10439228 -0.34809008 0.0016230188 0.009469992
-0.23925687 0.25755548 -0.011500414 0.0027625065 -0.024795063 -0.1543448 0.007976033 0.056852132
-0.06321749 0.27599123 0.012630949 0.0015239397 -0.122768916 0.16585973 -0.116278276 -0.039180208
0.085097164 -0.3458249 0.002509864 0.010186446 -0.17209443 0.17999339 -0.003198444 -0.0037311204
-0.04983208 0.16480632 -0.0129334135 -0.14709352 -0.011969984 0.18933591 -0.021838836 -0.11152342
0.22230968 -0.23574127 -0.006692079 -0.00045816886 0.08878774 -0.31381384 0.0021027569 0.008266128
0.10026277 -0.3131089 0.0044103162 0.01160563 0.042726383 -0.11224058 -0.0014536382 -0.028352015
-0.030623 0.17195544 0.13052836 0.03940107 0.06047456 0.14618205 0.052952014 -0.0065582716
0.08527579 -0.31093505 0.022171166 -0.027649319 -0.18018916 0.20728311 0.006022801 -0.054755602
0.14910127 0.09496332 0.01119382 -0.10429474 -0.3379827 0.3903398 0.0024915433 -0.0020050341
-0.050018817 -0.17438272 -0.027705545 -0.093764596 0.17170262 -0.27436328 -0.025405828 -0.0642049
0.25282696 -0.27513948 -0.009693125 -0.0038228915 -0.28361818 0.323287 0.0020560292 0.0025999877
-0.0242171 0.12824364 -0.08247427 -0.013617552 0.30810547 -0.30998304 0.015137867 -0.007232005
00000000: 17cb 923d 7c43 9abe 166e 5a3c 3a3c 06ba
00000010: d1d8 bd3d c116 a0be 149a 5d3c 4b1c 0bbb
00000020: f9cc 883d 40a1 853e 5deb bb3b d137 ea3c
00000030: 6bb3 c23d 5509 21be c865 bb3c 59be ef3c
00000040: 0b5a bf3d fd94 87be f6fa 263b a4d6 4ebd
00000050: a386 46bd 8366 d83d 6b16 c6bd 9d69 1ebd
00000060: 208f f13d 9ec1 8d3d 5236 083c a949 aabc
00000070: e885 d63b 3492 e53d 3591 f33c d47e 573d
00000080: 2976 56be eea3 ea3d fa30 86bd 8d93 d739
00000090: 0602 873e ca2b a1be 8625 8f3c efce b5bb
000000a0: e737 63be a0b1 a93d 3f02 76bc 7d6a 1a3c
000000b0: 7d05 79bd e42a 3f3e d96c babd c8e4 b1bc
000000c0: 6cf5 acbe 0ca1 c33e 0ad3 ec3a 322e 7a3b
000000d0: ee09 4abe af46 793e ac6e 133b eee3 4b3b
000000e0: 7cf8 323d 2bf0 f53d 8ba7 ad3c fc37 11bd
000000f0: 8c25 9bbd 30ff 8c3d a8c0 2a3b 8e38 b93b
00000100: a53c 2bbe 7afd 983e 51f0 babd 3a04 e03d
00000110: af29 3f3e 65b3 47be e37a dfbb 78ff 2cbb
00000120: 09cc b63d 6b92 a2be 7ece 2b3b 3ef7 05bc
00000130: 7049 b9be 48fe ce3e eda8 27bb 204b fe3b
00000140: e562 563d 2cae 953e 042d cabd dab8 323d
00000150: 68ac 9bb8 d98c fcbd c099 19bd 0715 29bd
00000160: dafe 95be c3a0 a13e b6b3 8abb 714c b93b
00000170: 27ad 4ebe 0b60 063e 6d85 d4bc 0bca 0a3d
00000180: d21a 63bb 1e66 ad3d 3e24 013e 1e66 de3d
00000190: 76a3 623e 4ea9 6cbe 1e55 bf3b a990 d03b
000001a0: d915 53be 6007 953e 1ae4 76bb b3db 16bc
000001b0: 7cf2 83be 36c7 9a3e 1f60 58bc 1459 263b
000001c0: b151 83be e291 a73d 4fe0 2f3d b948 703d
000001d0: 5631 443e 9d16 94be 0a66 493c d062 dc3c
000001e0: 2c09 a83c 5225 c0bd 0f61 b43a c8ac babd
000001f0: 0682 58be ec93 433d 8af9 0abd 493b 423d
00000200: 8d04 92ba a82f 313e 3673 ab3b 4c29 983a
00000210: 5490 42be 7d39 813e 1e9f e83c bffe 73bb
00000220: 89c6 c9be 1926 dd3e 4ded 02bb 6d71 253c
00000230: 6e25 2f3d 0d36 103d 4d6d 47ba 31d3 c13b
00000240: 420d cd3d 1580 7d3e 3e72 533d b9c8 0abc
00000250: 14b6 3bbd 449c 393e 1750 01bd 2aa2 85bd
00000260: 9ec9 683e 5c09 88be cca7 b13b 684a 52bb
00000270: 9fcb d53d dd38 b2be 79bb d43a 0628 1b3c
00000280: c1ff 74be 50de 833e 3c6c 3cbc 2b0b 353b
00000290: 041f cbbc 900c 1ebe e8ad 023c c8dd 683d
000002a0: 2c78 81bd b94e 8d3e 0af2 4e3c eebe c73a
000002b0: 456e fbbd 22d7 293e 4e23 eebd 6d7b 20bd
000002c0: 6c47 ae3d f60f b1be 887c 243b 0de5 263c
000002d0: 8639 30be 3050 383e fc9c 51bb d085 74bb
000002e0: b91c 4cbd fdc2 283e abe6 53bc af9f 16be
000002f0: c01d 44bc 46e1 413e 5ce7 b2bc 6466 e4bd
00000300: 26a5 633e 2966 71be 3a49 dbbb 6236 f0b9
00000310: 59d6 b53d 35ac a0be 68ce 093b a76e 073c
00000320: 9156 cd3d cf4f a0be 6a84 903b 8a25 3e3c
00000330: dc01 2f3d 64de e5bd 0188 beba 7c42 e8bc
00000340: 16dd fabc 1615 303e 3aa9 053e 0463 213d
00000350: 2cb4 773d bfb0 153e 36e4 583d c5e6 d6bb
00000360: 13a5 ae3d e132 9fbe 4ea0 b53c d380 e2bc
00000370: 8283 38be 0642 543e eb5a c53b 6947 60bd
00000380: 01ae 183e 217c c23d 4966 373c 7b98 d5bd
00000390: 120c adbe 9eda c73e 2949 233b e466 03bb
000003a0: 88e0 4cbd 6291 32be bdf6 e2bc a707 c0bd
000003b0: d0d2 2f3e 5879 8cbe e21f d0bc dc7d 83bd
000003c0: 8972 813e 15df 8cbe eacf 1ebc 7a89 7abb
000003d0: 6736 91be e085 a53e 72be 063b 8e64 2a3b
000003e0: f162 c6bc 4d52 033e 45e8 a8bd 271c 5fbc
000003f0: 00c0 9d3e 19b6 9ebe d104 783c 74fa ecbb

sequential_4/dense_17/MatMul f4 [64, 128]
0.024132146 -0.19284101 0.137586 -0.0785611 0.06045519 0.0072584962 -0.04021172 0.12241757
0.1882628 -0.16899778 0.133324 -0.04499369 0.24074244 0.012743483 0.06385889 -0.083702125
0.14066276 -0.22379185 0.0017436518 0.5027378 -0.123698294 -0.058166638 0.11799016 -0.047092717
-0.0700736 -0.18754512 0.19476463 -0.025668582 -0.08546183 -0.015585104 0.11256262 0.024687678
0.09152456 -0.052980766 0.47995406 0.13753498 -0.06368847 0.08263961 -0.05090009 -0.22135234
0.10746248 0.027160209 -0.07529602 0.11165072 -0.005418553 0.2623458 -0.17231373 0.13250917
-0.28575382 -0.01194092 0.039685413 -0.10769045 0.12036138 -0.13884768 0.031453203 0.06261576
-0.009167683 0.4061924 0.05676888 -0.19743182 -0.2765815 -0.043276187 0.054553863 -0.3553311
-0.20218095 0.40148678 0.074434385 0.06719987 0.04439671 0.054829437 0.02679627 0.035517972
-0.033360563 0.09110109 0.08130875 -0.36200377 -0.22996865 -0.23706087 -0.33137348 -0.020629983
-0.17225833 -0.16362359 0.2388423 0.40384594 -0.13110274 0.043655448 -0.16435608 0.05120019
0.10512831 0.023489889 0.08877527 -0.12570907 0.0025402782 -0.037049152 0.04853338 0.053185135
0.1461285 -0.049032833 0.1626135 -0.00024388744 0.0663864 0.04454646 0.11060401 0.00084715505
-0.29891512 -0.022188775 0.059353814 -0.056135815 -0.030969823 0.094416745 -0.011912112 0.13583815
0.11662596 0.03279195 -0.10979662 -0.12668805 -0.07831042 0.27821288 0.017553058 0.06581306
0.024817506 -0.043880858 -0.15609813 0.24503878 0.009438523 0.037736755 -0.24339944 0.09525284
-0.11424475 -0.13986577 0.004494223 -0.09311645 -0.20042135 -0.11965977 -0.058748428 -0.05121114
-0.0019049647 0.22304103 0.08637904 -0.1471371 -0.22770944 -0.03479773 -0.13131551 0.00079550454
-0.18320271 0.2119318 -0.017740201 -0.4043397 0.13723688 0.02332139 -0.21821426 0.04156649
-0.09384041 -0.012622254 -0.23192234 0.039397467 -0.020452151 -0.031714518 -0.11844711 0.02770944
-0.0345766 -0.1510173 -0.15223093 0.08755227 -0.1014607 0.08318144 0.22367656 -0.18100409
-0.24680449 0.050211996 0.037194386 -0.010765293 0.041384637 -0.08591679 -0.103101805 0.04615698
0.09856494 -0.21521272 -0.118719526 0.11635694 -0.08159411 -0.1205441 0.041803967 -0.17767657
0.07399344 -0.19533965 0.035577532 -0.14892481 0.05747754 -0.091872744 -0.15910241 0.26337445
-0.07821318 -0.41195172 -0.067865215 -0.30631834 0.033610206 -0.020504335 0.08726362 0.0067754686
0.121276826 0.093368195 -0.005515542 0.11400497 -0.12393115 -0.017875781 0.14179404 -0.20312203
-0.056464236 0.14287046 -0.1395477 -0.34863263 0.09686352 0.11796462 -0.1033274 0.011362548
-0.044217113 0.025881082 -0.07261916 -0.067105316 -0.2244426 0.025484737 0.007187066 -0.12474563
-0.0797235 -0.087304905 0.006970906 0.057249114 -0.042546615 0.23813124 -0.1177032 0.0404481
0.19176188 0.08138908 0.003746914 0.023214731 -0.12101715 -0.01828139 0.07819007 0.085139446
0.09449921 0.050714657 0.01449481 0.098053455 -0.030297374 -0.013421503 -0.10209855 0.12264305
0.04892742 -0.04870273 -0.012621271 -0.17904255 0.06576983 0.010452915 0.17487791 0.18584499
00000000: c7b0 c53c 1d78 45be 58e3 0c3e a4e4 a0bd
00000010: dc9f 773d aed8 ed3b 0bb5 24bd 10b6 fa3d
00000020: f7c7 403e c10d 2dbe 1686 083e 4e4b 38bd
00000030: 3085 763e 0bca 503c 73c8 823d 056c abbd
00000040: e609 103e b129 65be 3f8b e43a 6db3 003f
00000050: 8855 fdbd 2440 6ebd d3a4 f13d 4be4 40bd
00000060: bf82 8fbd d40b 40be 6170 473e eb46 d2bc
00000070: 9d06 afbd aa58 7fbc 3b87 e63d d03d ca3c
00000080: 3a71 bb3d 5c02 59bd 8abc f53e f8d5 0c3e
00000090: 1a6f 82bd f53e a93d 9d7c 50bd 30aa 62be
000000a0: 4a15 dc3d 167f de3c cd34 9abd 22a9 e43d
000000b0: 1e8e b1bb 3052 863e 0373 30be 7cb0 073e
000000c0: 534e 92be d9a3 43bc 2c8d 223d d08c dcbd
000000d0: 0780 f63d 162e 0ebe 13d5 003d b13c 803d
000000e0: 0d34 16bc 73f8 cf3e 7c86 683d 912b 4abe
000000f0: 179c 8dbe 5f42 31bd df73 5f3d f5ed b5be
00000100: 8608 4fbe ad8f cd3e 0e71 983d 16a0 893d
00000110: 53d9 353d d594 603d da83 db3c 4b7b 113d
00000120: 16a5 08bd 3593 ba3d 3485 a63d 8f58 b9be
00000130: e77c 6bbe 16c0 72be c9a9 a9be 3600 a9bc
00000140: 7d64 30be f18c 27be 1393 743e e5c4 ce3e
00000150: cc3f 06be 0ed0 323d f64c 28be 4ab7 513d
00000160: 834d d73d de6d c03c cfcf b53d e1b9 00be
00000170: cc7a 263b dac0 17bd f0ca 463d a8d8 593d
00000180: b6a2 153e a7d6 48bd 2784 263e 09bc 7fb9
00000190: 98f5 873d 5976 363d 5b84 e23d 9d13 5e3a
000001a0: 670b 99be 3cc5 b5bc fc1c 733d abee 65bd
000001b0: 6db4 fdbc 915d c13d 052b 43bc 2819 0b3e
000001c0: 97d9 ee3d da50 063d 0ddd e0bd 83ba 01be
000001d0: 3761 a0bd eb71 8e3e 6ecb 8f3c ffc8 863d
000001e0: 154e cb3c 6abc 33bd 30d8 1fbe 72eb 7a3e
000001f0: 09a4 1a3c db91 1a3d b43d 79be ec13 c33d
00000200: 27f9 e9bd f938 0fbe 4644 933b d6b3 bebd
00000210: 413b 4dbe 2e10 f5bd 31a2 70bd c6c2 51bd
00000220: 02b0 f9ba de64 643e 7ee7 b03d 1cab 16be
00000230: aa2c 69be 1188 0ebd 9377 06be 6889 503a
00000240: 7e99 3bbe a604 593e e653 91bc 9d05 cfbe
00000250: d387 0c3e 800c bf3c 8f73 5fbe a041 2a3d
00000260: 672f c0bd 92cd 4ebc 0d7d 6dbe 3d5f 213d
00000270: 458b a7bc 15e7 01bd 6694 f2bd e8fe e23c
00000280: 31a0 0dbd 47a4 1abe 6de2 1bbe 9b4e b33d
00000290: a1ca cfbd 085b aa3d 780b 653e 2359 39be
000002a0: 51ba 7cbe 18ab 4d3d 2459 183d e960 30bc
000002b0: f082 293d 24f5 afbd 0a27 d3bd 1a0f 3d3d
000002c0: 6adc c93d b960 5cbe 3923 f3bd 8c4c ee3d
000002d0: d01a a7bd d3df f6bd a33a 2b3d d9f0 35be
000002e0: df89 973d 1e07 48be bfb9 113d bf7f 18be
000002f0: 926d 6b3d c727 bcbd beeb 22be 04d9 863e
00000300: 3b2e a0bd 56eb d2be ebfc 8abd c2d5 9cbe
00000310: dbaa 093d b5f8 a7bc 45b7 b23d c004 de3b
00000320: fc5f f83d d337 bf3d b8bb b4bb 707b e93d
00000330: 9dcf fdbd 3b70 92bc 7532 113e 39ff 4fbe
00000340: 0b47 67bd a24c 123e 98e5 0ebe fa7f b2be
00000350: 6260 c63d 6f97 f13d 519d d3bd fb29 3a3c
00000360: 011d 35bd 9004 d43c 5bb9 94bd 836e 89bd
00000370: 48d4 65be 5ec5 d03c 7b81 eb3b a37a ffbd
00000380: 1346 a3bd eacc b2bd 336c e43b 0c7e 6a3d
00000390: 5c45 2ebd add8 733e 600e f1bd e8ac 253d
000003a0: 3a5d 443e 51af a63d c98e 753b d22c be3c
000003b0: d7d7 f7bd dbc2 95bc 1e22 a03d 975d ae3d
000003c0: cd88 c13d 2cba 4f3d a47b 6d3c 40d0 c83d
000003d0: 3332 f8bc dde5 5bbc 0b19 d1bd 482c fb3d
000003e0: 1e68 483d 847c 47bd 73c9 4ebc ee56 37be
000003f0: 55b2 863d b442 2b3c 3213 333e 264e 3e3e

sequential_4/dense_18/MatMul f4 [32, 64]
0.13085414 0.16627367 -0.095661625 -0.06498937 0.36533183 0.29847625 -0.13599437 0.35800248
0.0025796157 0.15495837 -0.11351722 0.05743609 -0.00039931346 -0.15842539 0.08835881 0.23683347
0.1017287 0.31049547 0.0585476 0.2967749 0.041959442 0.37112468 -0.07280836 0.12494975
-0.10221437 0.03299472 0.19321965 0.357653 0.18068731 0.05065949 -0.1916257 0.12387801
0.16537549 0.076703444 -0.07833431 -0.07105884 -0.09070776 -0.111639194 -0.089791596 0.14731663
-0.20525235 -0.2880572 0.2883111 0.20883033 0.112734616 -0.021926701 0.2424592 0.18848594
0.27146047 0.22138405 -0.020119777 0.06910128 0.07144232 0.35485768 0.16403683 0.085424885
0.15834768 0.19040857 0.14763749 0.1612911 0.019838916 0.20247759 -0.12214041 0.04696632
0.26947257 0.11426536 0.27610675 -0.14811331 0.07765815 0.11688188 -0.033461906 0.35787234
0.0715322 0.2765968 -0.04873224 0.10055697 0.09860972 0.3374097 0.23969676 0.17716244
0.33524343 0.015793007 -0.12982877 0.2103679 -0.13676411 0.11741001 0.10307116 -0.1281909
0.20109461 0.29482046 -0.14775956 -0.11948573 -0.04692317 -0.06974037 -0.09110773 -0.056147836
0.26078007 -0.049156964 0.053381346 -0.13677153 -0.003273324 0.080108 0.17768086 0.032775715
-0.21221253 -0.062144585 0.18538469 -0.05440241 0.012454311 0.08674775 0.34743172 -0.1147905
0.15148565 0.10272036 0.06706504 0.07585645 0.005950214 0.31068915 -0.108233176 0.33436146
-0.08773929 0.054575164 0.09177535 -0.1316809 0.075331554 -0.06656458 -0.091994494 0.35858405
0.19674225 0.13345517 -0.20742731 -0.0005055267 0.16373841 0.25067577 0.33443496 0.3865306
0.2977184 0.117782176 -0.20173958 -0.034226976 -0.001027232 0.09576737 0.012234631 -0.23197249
-0.10525854 -0.21386136 0.2623081 -0.05639744 -0.07683224 0.23775584 -0.06004561 -0.16931032
0.20798074 0.004923797 -0.21205923 0.12267921 -0.052293524 -0.049779695 0.012843781 0.07850208
0.033740453 0.1967868 0.2882659 0.033680737 0.405084 0.08419223 0.06818362 0.13362654
-0.105377644 0.17050226 -0.030624134 0.0013321353 -0.10284535 0.30845347 0.29703268 0.10453166
-0.045151066 -0.23154129 0.087868534 0.16833444 0.05191692 -0.1028914 0.07669833 -0.08987821
0.29945943 0.3157949 0.26931438 -0.08942785 0.24411307 -0.05360856 -0.1191412 0.31023416
-0.0627026 -0.0068550296 0.108593665 -0.14012475 0.3851527 0.21553679 -0.1340326 0.13312747
0.0007762117 -0.048016686 -0.16616146 -0.1626525 -0.15153016 0.13407223 -0.3178528 -0.08470247
-0.075748965 0.11913732 -0.09392269 -0.030364325 -0.29164225 0.23586299 -0.15388452 -0.09942689
0.18121682 0.37289518 0.078230284 0.20736851 0.13815036 -0.11655891 0.14018908 0.0041713174
0.2788008 0.13560969 0.046706263 -0.08956869 -0.036140814 -0.024337398 0.15324886 -0.15839823
0.025740832 0.25864223 0.32461363 -0.012286424 0.07982804 0.09329253 0.13188653 0.19609118
0.2942356 0.21792784 0.23351146 0.040760625 0.22329158 0.27544567 0.15312484 0.26102287
-0.0024386777 0.21003534 0.34146106 -0.2544983 0.07832283 -0.018652461 0.017923491 0.23934966
00000000: a1fe 053e a543 2a3e 3eea c3bd 2619 85bd
00000010: c60c bb3e e1d1 983e 1c42 0bbe 1a4c b73e
00000020: c50e 293b 68ad 1e3e b77b e8bd 1b42 6b3d
00000030: f25a d1b9 443a 22be 77f5 b43d 7984 723e
00000040: 2357 d03d 43f9 9e3e 9ccf 6f3d e1f2 973e
00000050: aadd 2b3d 0e04 be3e 8d1c 95bd a8e5 ff3d
00000060: c555 d1bd 7925 073d 5fdb 453e 4b1e b73e
00000070: 1806 393e 5380 4f3d 8739 44be c1b3 fd3d
00000080: 3158 293e b216 9d3d bd6d a0bd 4c87 91bd
00000090: fdc4 b9bd 17a3 e4bd a8e4 b7bd 2cda 163e
000000a0: ac2d 52be 3c7c 93be 839d 933e 9ed7 553e
000000b0: 68e1 e63d a09f b3bc 3947 783e 7502 413e
000000c0: defc 8a3e 80b2 623e 3bd2 a4bc f984 8d3d
000000d0: 5a50 923d e8af b53e 45f9 273e 3ef3 ae3d
000000e0: e525 223e 77fa 423e 482e 173e 7e29 253e
000000f0: 3985 a23c 4956 4f3e c024 fabd c25f 403d
00000100: 4ff8 893e f503 ea3d dd5d 8d3e 04ab 17be
00000110: 3c0b 9f3d c45f ef3d 5a0f 09bd 0b3b b73e
00000120: 797f 923d 199e 8d3e 759b 47bd d0f0 cd3d
00000130: e5f3 c93d f7c0 ac3e 1173 753e 126a 353e
00000140: 07a5 ab3e 5660 813c d5f1 04be af6a 573e
00000150: e40b 0cbe a974 f03d f916 d33d 7a44 03be
00000160: bfeb 4d3e b5f2 963e 484e 17be efb4 f4bd
00000170: 8332 40bd 0ad4 8ebd b196 babd 46fb 65bd
00000180: f784 853e d058 49bd 66a6 5a3d d60d 0cbe
00000190: 4485 56bb aa0f a43d f9f1 353e d43f 063d
000001a0: 3e4e 59be 528b 7ebd 7cd5 3d3e 10d5 5ebd
000001b0: 2b0d 4c3c cea8 b13d 92e2 b13e 4817 ebbd
000001c0: 0e1f 1b3e 0d5f d23d 6559 893d a05a 9b3d
000001d0: 03fa c23b a612 9f3e 5ba9 ddbd 6d31 ab3e
000001e0: a8b0 b3bd 358a 5f3d b7f4 bb3d 5cd7 06be
000001f0: 6e47 9a3d 0353 88bd 9c67 bcbd 5498 b73e
00000200: cd76 493e 79a8 083e d367 54be 5385 04ba
00000210: 0bab 273e 9358 803e 0f3b ab3e 57e7 c53e
00000220: 8c6e 983e c837 f13d d294 4ebe 9631 0cbd
00000230: 30a4 86ba af21 c43d c373 483c 328a 6dbe
00000240: ca91 d7bd 79fe 5abe 3f4d 863e 0101 67bd
00000250: 395a 9dbd 4476 733e 63f2 75bd af5f 2dbe
00000260: e7f8 543e ce57 a13b 0e26 59be 3d3f fb3d
00000270: bc31 56bd cbe5 4bbd b96e 523c b3c5 a03d
00000280: 6e33 0a3d 7b82 493e 9797 933e d0f4 093d
00000290: 2c67 cf3e fa6c ac3d dba3 8b3d 65d5 083e
000002a0: 3cd0 d7bd 2598 2e3e 77df fabc 0b9b ae3a
000002b0: 95a0 d2bd 9ded 9d3e ab14 983e b214 d63d
000002c0: 53f0 38bd 2919 6dbe 6bf4 b33d dd5f 2c3e
000002d0: d6a6 543d bab8 d2bd 0414 9d3d 1112 b8bd
000002e0: bf52 993e deaf a13e 93e3 893e f325 b7bd
000002f0: c7f8 793e a694 5bbd 4d00 f4bd 03d7 9e3e
00000300: 396a 80bd 28a0 e0bb 5b66 de3d dd7c 0fbe
00000310: bc32 c53e adb5 5c3e d83f 09be 9152 083e
00000320: af7a 4b3a 25ad 44bd 3b26 2abe 618e 26be
00000330: b92a 1bbe 3b4a 093e 9abd a2be 7d78 adbd
00000340: 4622 9bbd 44fe f33d 8a5a c0bd 9bbe f8bc
00000350: 2252 95be 1186 713e e793 1dbe 53a0 cbbd
00000360: e790 393e 1eec be3e 3337 a03d 6958 543e
00000370: 4a77 0d3e 70b6 eebd ba8d 0f3e 8caf 883b
00000380: fabe 8e3e 44dd 0a3e 114f 3f3d ca6f b7bd
00000390: 6408 14bd 395f c7bc 45ed 1c3e 2533 22be
000003a0: 70de d23c c16c 843e c233 a63e ff4c 49bc
000003b0: e27c a33d 2710 bf3d 430d 073e 20cc 483e
000003c0: 0ca6 963e 7a28 5f3e a11d 6f3e 9df4 263d
000003d0: 8ca6 643e 3707 8d3e c2cc 1c3e caa4 853e
000003e0: 39d2 1fbb 8113 573e fcd3 ae3e 9a4d 82be
000003f0: b867 a03d 0ccd 98bc 49d4 923c 1418 753e

sequential_4/dense_19/MatMul f4 [3, 32]
0.26524252 0.405799 -0.32740778 0.10615222 -0.004147202 -0.30721927 -0.012409331 -0.040397327
-0.35918742 0.3915635 -0.3155421 -0.29228726 -0.42567107 0.12525511 0.5596003 0.19775957
0.2843103 0.03668517 0.24538541 -0.039161157 -0.47841093 -0.23410743 0.010452094 -0.41790828
-0.28880692 0.4533571 -0.061604995 -0.42938104 0.41581234 -0.020882556 -0.001915788 -0.14410657
0.29506657 0.31089425 0.13460018 0.2884533 0.105597466 -0.5197275 -0.42010698 -0.23340519
0.4117967 0.461009 0.42092073 -0.10562177 0.102911204 0.40999964 -0.66650915 -0.14616436
-0.54546416 -0.0850829 -0.21356536 -0.33025494 0.18101865 0.05515626 -0.45063975 0.41700822
-0.062177084 -0.2849458 -0.1523948 -0.38566113 0.44277138 -0.5459843 0.6680591 0.20202698
-0.028385859 -0.16383441 -0.0010672103 -0.4461137 -0.19723593 0.09438969 0.10511519 0.34520513
0.21989147 -0.23739971 0.09553255 0.13998976 -0.3650288 0.12613584 0.2999296 0.36204037
0.018557219 0.25030845 -0.21742056 -0.49197623 0.25894883 0.49055114 -0.031990465 0.29341698
-0.38569814 -0.2998948 -0.5400505 0.16811642 -0.17296053 0.40363392 -0.3390681 0.13750505
00000000: decd 873e e3c4 cf3e fea1 a7be 5666 d93d
00000010: 40e5 87bb d84b 9dbe 8250 4bbc ab77 25bd
00000020: 6ae7 b7be 037b c83e bc8e a1be ada6 95be
00000030: 8ff1 d9be e042 003e f741 0f3f 7c81 4a3e
00000040: 1f91 913e 3043 163d 5046 7b3e 7367 20bd
00000050: 47f2 f4be dcb9 6fbe 423f 2b3c 13f8 d5be
00000060: 80de 93be 6c1e e83e 8555 7cbd d5d7 dbbe
00000070: 5be5 d43e e511 abbc 2e1b fbba ac90 13be
00000080: f712 973e 882d 9f3e a1d4 093e 27b0 933e
00000090: 7c43 d83d dd0c 05bf 4318 d7be c501 6fbe
000000a0: 04d7 d23e 5f09 ec3e ec82 d73e 3a50 d8bd
000000b0: 1cc3 d23d 79eb d13e 58a0 2abf 1cac 15be
000000c0: 8aa3 0bbf f23f aebd e1b0 5abe 2d17 a9be
000000d0: f45c 393e 88eb 613d 41ba e6be 1a82 d53e
000000e0: 66ad 7ebd 6ae4 91be 620d 1cbe 6075 c5be
000000f0: eeb2 e23e a1c5 0bbf ec05 2b3f 29e0 4e3e
00000100: 7689 e8bc 35c4 27be a3e1 8bba 0469 e4be
00000110: 37f8 49be 624f c13d a246 d73d babe b03e
00000120: 3b2b 613e e918 73be 92a6 c33d 7a59 0f3e
00000130: 0ee5 babe c129 013e 5f90 993e 5b5d b93e
00000140: 4f05 983c 6e28 803e 7fa3 5ebe 4fe4 fbbe
00000150: f194 843e 8529 fb3e 6f08 03bd c03a 963e
00000160: 3a7a c5be d08b 99be c040 0abf b626 2c3e
00000170: 911c 31be 1ba9 ce3e 569a adbe 20ce 0c3e
